tflite-model/tflite_learn_6.tflite (tflite, 11080 bytes, 6 tensors)

sequential/conv1d/BiasAdd/ReadVariableOp f4 [8]
-0.13986568 -0.2168473 -0.37679383 -0.061363336 -0.08403111 0.12083844 0.049985275 0.022529881
00000000: f338 0fbe 380d 5ebe 1feb c0be 1f58 7bbd
00000010: 8118 acbd 257a f73d 5cbd 4c3d 9690 b83c

sequential/conv1d_1/BiasAdd/ReadVariableOp f4 [16]
-0.14057307 -0.07748659 0.12672095 -0.070686065 0.027867973 0.058157742 0.1324193 -0.082641765
0.07511853 0.01144827 0.13439575 0.15278795 0.14961849 -0.017917583 -0.13998309 0.087665945
00000000: 63f2 0fbe 4ab1 9ebd 23c3 013e dbc3 90bd
00000010: 604b e43c d036 6e3d ed98 073e 1640 a9bd
00000020: bed7 993d 8691 3b3c 0a9f 093e 7274 1c3e
00000030: 9735 193e e5c7 92bc ba57 0fbe 348a b33d

sequential/conv1d/Conv1D f4 [8, 1, 3, 32]
0.044773128 0.08670145 -0.12508336 -0.01811877 -0.164973 0.017609332 0.057174347 -0.16245055
-0.0662814 0.017162828 0.22979008 -0.096547924 0.1945598 -0.06377141 -0.134751 -0.14238133
-0.25217697 -0.13378365 -0.07654133 -0.19106759 0.081827916 0.08354797 0.32384625 0.23775302
0.20292585 0.043978035 0.09405565 -0.20832713 -0.0319154 -0.33123404 -0.26759857 -0.096646056
0.13434847 0.108455725 0.0511214 0.018865181 0.117077254 0.052136984 0.15847938 0.13164058
0.13495184 0.21929856 0.04362491 0.2865305 0.0497468 0.04963284 0.24409576 -0.13878234
-0.23017652 -0.11247585 0.17509183 0.23197578 -0.13762009 0.30913472 0.38702306 0.324333
0.34565058 0.18256922 0.10582903 0.16309956 -0.25714725 0.035630062 0.07120763 -0.12232156
0.07601297 0.01096809 0.09292637 -0.076136574 0.07015866 -0.06634103 -0.14136693 0.014335434
-0.09103497 -0.12919793 0.0081861615 0.032963004 0.058044087 0.052537482 -0.2327774 -0.279244
-0.06256966 -0.13223368 0.086281456 -0.1858719 0.20950916 -0.1730728 -0.014690358 0.008040977
-0.06627858 0.1683554 -0.048150778 -0.32108274 -0.14077683 -0.44971535 -0.29129577 -0.26115027
-0.20002778 -0.083677195 -0.055841003 0.35509503 -0.09016538 0.23898968 -0.041955523 0.1907212
-0.031923085 0.020063486 -0.031377364 -0.0380707 0.34238485 -0.012088648 0.36427948 0.029815933
-0.048814267 0.15482731 0.32115075 0.30577728 0.15730289 -0.016573148 0.124355175 -0.034878347
0.04466255 -0.12479205 -0.1608441 -0.1001094 -0.034319986 0.109942846 0.05642112 -0.07155368
-0.13956831 0.175176 0.043418694 0.27822062 -0.116165765 -0.11169429 0.06724257 -0.13897929
0.09549207 0.01689152 -0.17433621 0.037872076 0.13644616 0.38237908 0.32492214 0.118876085
0.08679295 0.10480598 0.025824688 -0.024255186 0.13291994 -0.075414084 -0.14361043 0.06049572
-0.010182538 -0.14713223 -0.11869007 -0.1205683 0.17671889 0.2804405 -0.053013917 0.10098278
-0.4680428 -0.18795986 -0.29426432 -0.15940346 -0.09592789 0.14406373 -0.04662155 -0.13268664
-0.22037837 0.09290302 -0.13918863 -0.20056233 -0.00829639 0.06797021 0.06486477 -0.31867912
0.14927538 -0.11818356 -0.024711767 -0.14460835 -0.22492439 0.17312826 0.060158513 -0.18918312
-0.35217315 -0.036727507 -0.29370743 -0.0027773557 0.20219211 -0.15122002 -0.044403587 0.11643345
0.066152684 0.15733886 -0.23228604 0.12946384 -0.10232249 -0.19340232 0.093682125 0.022894448
-0.14052662 0.07983414 0.17323191 -0.13356128 0.026934693 -0.39722115 -0.2823998 0.058025923
0.18059634 -0.15966555 0.17472611 0.20482862 0.31952238 0.11757278 0.044286184 0.04039543
0.0923068 -0.11246817 -0.21113466 -0.2646456 0.052840907 -0.09402899 -0.099945456 0.1591062
-0.2798077 0.070679575 0.09153297 0.038374476 0.1596206 -0.17903842 -0.029659793 -0.14681804
0.043066308 0.06136504 0.17178889 -0.04816128 0.0017557758 -0.16074476 -0.050180383 -0.15715764
0.20556507 -0.16750817 0.2564543 -0.08715159 0.003420198 0.21519111 0.28421167 0.1602683
-0.1310279 -0.05071384 0.15330905 0.120628774 0.09489889 0.34036845 -0.044241954 0.040092416
00000000: 0764 373d 8890 b13d da15 00be d16d 94bc
00000010: afee 28be 7241 903c a62f 6a3d 7059 26be
00000020: 8bbe 87bd 0f99 8c3c 174e 6b3e ebba c5bd
00000030: af3a 473e 969a 82bd 2bfc 09be 69cc 11be
00000040: 571d 81be 95fe 08be b3c1 9cbd 39a7 43be
00000050: 6595 a73d 331b ab3d 2dcf a53e 8775 733e
00000060: cbcb 4f3e 5022 343d 40a0 c03d b553 55be
00000070: b9b9 02bd 8297 a9be ae02 89be 5eee c5bd
00000080: a592 093e 091e de3d ac64 513d 278b 9a3c
00000090: 33c6 ef3d 978d 553d 6b48 223e cacc 063e
000000a0: d130 0a3e cd8f 603e 09b0 323d 20b4 923e
000000b0: 4dc3 4b3d ce4b 4b3d 3df4 793e f51c 0ebe
000000c0: 65b3 6bbe bd59 e6bd 464b 333e 0f8b 6d3e
000000d0: 48ec 0cbe e846 9e3e e327 c63e fa0e a63e
000000e0: 1df9 b03e 6df3 3a3e e4bc d83d 9203 273e
000000f0: cea8 83be d4f0 113d 4ed5 913d ba83 fabd
00000100: b0ac 9b3d 81b3 333c 2e50 be3d 7eed 9bbd
00000110: 58af 8f3d cedd 87bd 7ec2 10be 2bdf 6a3c
00000120: 8b70 babd 764c 04be 401f 063c 3704 073d
00000130: a3bf 6d3d 8b31 573d 335d 6ebe 12f9 8ebe
00000140: 8624 80bd 4468 07be 55b4 b03d 3455 3ebe
00000150: 9289 563e ff39 31be d4af 70bc 4dbe 033c
00000160: 10bd 87bd 5c65 2c3e c039 45bd f564 a4be
00000170: cd27 10be 1741 e6be b824 95be 7db5 85be
00000180: 15d4 4cbe f35e abbd 89b9 64bd 04cf b53e
00000190: a0a8 b8bd b6b9 743e 8ed9 2bbd 6b4c 433e
000001a0: c8c1 02bd 2e5c a43c 8d85 00bd 06f0 1bbd
000001b0: 114d af3e 770f 46bc d782 ba3e 8b40 f43c
000001c0: 78f1 47bd 0d8b 1e3e df6d a43e d78e 9c3e
000001d0: 0214 213e 69c4 87bc edad fe3d 99dc 0ebd
000001e0: 14f0 363d f992 ffbd 51b4 24be 2806 cdbd
000001f0: 1d93 0cbd b729 e13d d519 673d bc8a 92bd
00000200: ffea 0ebe 5661 333e cdd7 313d ef72 8e3e
00000210: 51e8 edbd fabf e4bd 79b6 893d 9650 0ebe
00000220: 5991 c33d 1660 8a3c 3185 32be c01f 1b3d
00000230: 8bb8 0b3e 31c7 c33e 325c a63e 4e75 f33d
00000240: 81c0 b13d 85a4 d63d 4c8e d33c d0b2 c6bc
00000250: 2a1c 083e b372 9abd 9d0e 13be 5cca 773d
00000260: a9d4 26bc d5a9 16be c813 f3bd 83ec f6bd
00000270: ccf5 343e e695 8f3e 1f25 59bd 0fd0 ce3d
00000280: 4ea3 efbe 8d78 40be d0a9 96be a93a 23be
00000290: d775 c4bd 7185 133e 3df6 3ebd 02df 07be
000002a0: deaa 61be f043 be3d 7787 0ebe 3660 4dbe
000002b0: 95ed 07bc f733 8b3d d2d7 843d e929 a3be
000002c0: a5db 183e 390a f2bd 5570 cabc 3614 14be
000002d0: 9452 66be 8948 313e c668 763d 38b9 41be
000002e0: 0a50 b4be 956f 16bd d260 96be 4c04 36bb
000002f0: 730b 4f3e 6cd9 1abe 89e0 35bd a974 ee3d
00000300: 0f7b 873d 701d 213e 64dc 6dbe 2b92 043e
00000310: 748e d1bd 420b 46be 6adc bf3d 238d bb3c
00000320: 36e6 0fbe 1580 a33d b563 313e 4ac4 08be
00000330: 25a6 dc3c 9260 cbbe b596 90be 97ac 6d3d
00000340: 3fee 383e 5e7f 23be 67eb 323e 98be 513e
00000350: 7098 a33e ffc9 f03d 6e65 353d ae75 253d
00000360: 590b bd3d b655 e6bd af33 58be a17f 87be
00000370: b56f 583d 4592 c0bd 34b0 ccbd bcec 223e
00000380: f442 8fbe 74c0 903d a375 bb3d 8e2e 1d3d
00000390: 9573 233e d955 37be 18f9 f2bc 7857 16be
000003a0: 4c66 303d e859 7b3d 6de9 2f3e c344 45bd
000003b0: 0f22 e63a 469a 24be f289 4dbd efed 20be
000003c0: a67f 523e 4387 2bbe fa4d 833e 887c b2bd
000003d0: 6725 603b 0f5b 5c3e 3184 913e 601d 243e
000003e0: 2e2c 06be 51b9 4fbd 0cfd 1c3e 380c f73d
000003f0: 595a c23d c644 ae3e 0d37 35bd f237 243d

sequential/conv1d_1/Conv1D f4 [16, 1, 3, 8]
-0.015595433 -0.13758717 0.16531797 0.43481445 -0.027846526 0.1466305 -0.017508203 0.078646965
0.08579027 -0.051909152 -0.060604006 -0.022635616 -1.6423697 0.11075869 0.040809292 -0.11521813
-0.28698775 0.057232007 -0.35957512 0.05940691 -1.4410211 0.0018476854 0.085782245 0.43670675
-0.2427429 0.25314793 -0.124430895 0.27868935 0.072976805 0.14052641 -0.24611443 0.16093276
-0.09774485 -0.06791545 -0.61609596 -0.0040159402 0.10285223 0.16985609 -0.24410109 0.62502664
0.37062323 -0.09293352 -0.72717905 -0.04379377 0.037965775 -0.041381605 -0.04495237 -0.16692661
-0.95400673 -0.3637742 -0.8894817 -0.120746 -1.0169 -1.2058946 -0.1962689 -0.096075654
0.022615967 -0.008824495 -0.4733885 0.028853402 -0.031888694 -0.6934932 -0.14817153 -0.020293618
-0.83552295 -0.5424626 -0.551827 -0.06826508 -0.7240583 -0.71744365 -0.20941041 -0.17628126
-0.25758198 -0.10579727 -0.0378417 -0.019864762 0.46449503 -0.26491848 -0.28488547 0.12062329
-0.2880969 -1.6204472 -0.13302736 0.361212 -0.31839836 -1.516244 -0.14635777 -0.0020629507
-0.19506454 -0.23617248 -0.05196774 -0.08068159 -0.4803569 -1.2202425 0.098964475 0.12110673
-0.07625619 -0.15997742 0.22379693 -0.79341227 -1.5186012 -0.12639639 -0.009505053 -0.064540766
-0.5129563 -0.10317901 0.15524428 -1.2441618 -0.98705584 0.10601409 0.1686873 0.13567151
-0.29837596 -0.072493084 0.42823032 -1.244389 0.24320452 0.18607001 -0.04392403 -0.011846948
-0.6027617 -0.005473547 0.079526305 -0.09423813 -0.0073901583 -0.13372855 -0.42846137 0.16808772
-0.81730366 0.062028423 -0.05950757 -0.122093484 -0.08938957 -0.05563367 -0.22348185 -0.0020715622
-1.2880203 0.38781375 -0.21124308 -0.023684861 -0.47221568 -0.2075419 -0.09693184 -0.06815731
-0.49388883 -0.43413204 -0.6773667 -0.07176438 -1.3235885 -0.99370164 -0.43620932 -0.033414397
-0.5482907 -0.580172 -0.6027666 -0.11252727 -1.1616393 -0.81594586 -0.40024942 -0.0965566
-0.75078046 -0.89328176 -0.42191216 -0.019870244 -0.7999983 -0.9326716 -0.8560411 -0.1298491
-0.2164749 0.06419178 -0.22523339 -0.13823798 -0.7450427 0.07529627 -0.110476606 -0.10071538
0.24702743 0.10418998 0.120560184 0.3870739 -0.29253918 0.08504213 -0.17094918 0.004883086
0.25472766 -0.06730066 -0.3932936 -0.07755093 -0.35681334 0.055828925 0.40358976 -0.19578807
0.03195935 -0.16866189 -0.70592254 0.1296105 0.016545283 -0.79999197 -0.5636511 0.2543191
-0.24758124 -0.39115307 -1.0558016 0.04630511 -0.078123644 -0.78571516 -0.6473307 0.011971023
-0.41147038 -0.83483154 -0.5315128 -0.0068079806 -0.052112542 -0.34743944 -0.7749553 -0.09204065
-1.198746 -1.0181006 -0.15618935 0.2234408 -0.09916273 0.04288064 -0.006907067 -0.2814122
-1.1268848 -1.3482234 -0.16718502 -0.013442834 0.011543204 0.02421036 0.013482694 -0.36374545
-1.5277038 -1.4614254 -0.05466079 0.24064551 0.07323607 0.027388103 -0.032534536 -0.30272275
0.08632068 -0.1552632 -0.31639326 -0.0014139954 -0.03620021 -0.8869612 -0.43645328 0.014360461
-0.67952996 -0.6312922 -0.36148527 -0.058921658 -1.0939083 -0.84559816 -0.9142906 -0.13741696
00000000: fd83 7fbc a7e3 0cbe 1d49 293e 00a0 de3e
00000010: 661e e4bc 4e26 163e 5d6d 8fbc a911 a13d
00000020: cfb2 af3d b19e 54bd e83b 78bd 546e b9bc
00000030: 2c39 d2bf 74d5 e23d a527 273d 7cf7 ebbd
00000040: 0ff0 92be 1c6c 6a3d 3b1a b8be a954 733d
00000050: 6173 b8bf 092e f23a 9aae af3d 0798 df3e
00000060: 9891 78be 9b9c 813e a0d5 febd 5fb0 8e3e
00000070: dd74 953d 28e6 0f3e 6c05 7cbe 8fcb 243e
00000080: 742e c8bd 4117 8bbd 77b8 1dbf 2698 83bb
00000090: 31a4 d23d c1ee 2d3e a3f5 79be bf01 203f
000000a0: 54c2 bd3e ee53 bebd 6828 3abf 1961 33bd
000000b0: 0082 1b3d c27f 29bd fa1f 38bd cfee 2abe
000000c0: c939 74bf 9d40 babe 13b5 63bf ae49 f7bd
000000d0: c729 82bf c15a 9abf b7fa 48be 50c3 c4bd
000000e0: 1f45 b93c 9d94 10bc fa5f f2be f85d ec3c
000000f0: b89d 02bd c588 31bf 47ba 17be cd3e a6bc
00000100: d5e4 55bf d4de 0abf 8944 0dbf 90ce 8bbd
00000110: e25b 39bf 63aa 37bf af6f 56be 1383 34be
00000120: c9e1 83be 3dac d8bd e6ff 1abd 6dbb a2bc
00000130: 4bd2 ed3e 65a3 87be 82dc 91be 5809 f73d
00000140: 7081 93be d06a cfbf 5338 08be c7f0 b83e
00000150: 1c05 a3be 4914 c2bf d0de 15be 9232 07bb
00000160: 00bf 47be 33d7 71be 20dc 54bd 643c a5bd
00000170: 57f1 f5be e830 9cbf e3ad ca3d ce06 f83d
00000180: 352c 9cbd 1fd1 23be 062b 653e 111d 4bbf
00000190: 8661 c2bf 0e6e 01be 15bb 1bbc f32d 84bd
000001a0: 1b51 03bf 844f d3bd 5bf8 1e3e b240 9fbf
000001b0: b1af 7cbf ea1d d93d 5dbc 2c3e 79ed 0a3e
000001c0: bcc4 98be 4177 94bd 0141 db3e 2448 9fbf
000001d0: 9b0a 793e 2389 3e3e afe9 33bd b419 42bc
000001e0: 974e 1abf 715b b3bb b0de a23d ecff c0bd
000001f0: 2429 f2bb 23f0 08be 4a5f dbbe 301f 2c3e
00000200: d03a 51bf 8411 7e3d 36be 73bd 260c fabd
00000210: e111 b7bd 22e0 63bd 6dd8 64be 0cc3 07bb
00000220: d9dd a4bf 868f c63e 1b50 58be c106 c2bc
00000230: 41c6 f1be dd85 54be 3384 c6bd 0f96 8bbd
00000240: ffde fcbe 8e46 debe e767 2dbf 34f9 92bd
00000250: 596b a9bf 3b63 7ebf d456 dfbe 89dd 08bd
00000260: c85c 0cbf 2786 14bf e94e 1abf b374 e6bd
00000270: 99b0 94bf d4e1 50bf 7eed ccbe 77bf c5bd
00000280: 2633 40bf 1dae 64bf df04 d8be ecc6 a2bc
00000290: b0cc 4cbf 91c3 6ebf 8225 5bbf 2af7 04be
000002a0: 99ab 5dbe fb76 833d 95a3 66be 428e 0dbe
000002b0: 1ebb 3ebf ee34 9a3d 8f41 e2bd dd43 cebd
000002c0: c2f4 7c3e 8e61 d53d 42e8 f63d 8d2e c63e
000002d0: b2c7 95be 912a ae3d 4d0d 2fbe 4b02 a03b
000002e0: aa6b 823e eed4 89bd c75d c9be 06d3 9ebd
000002f0: 3db0 b6be dfac 643d 51a3 ce3e ab7c 48be
00000300: cfe7 023d b4b5 2cbe 57b7 34bf 9db8 043e
00000310: f989 873c 46cc 4cbf 704b 10bf 1d36 823e
00000320: f085 7dbe 3745 c8be 8224 87bf 6daa 3d3d
00000330: 4aff 9fbd a124 49bf 77b7 25bf 1c22 443c
00000340: 3fac d2be 85b7 55bf 3911 08bf 7b15 dfbb
00000350: f673 55bd 95e3 b1be 7863 46bf cf7f bcbd
00000360: 8270 99bf 1f51 82bf 1af0 1fbe aacd 643e
00000370: d415 cbbd 9ca3 2f3d ad54 e2bb 4315 90be
00000380: c33d 90bf 9692 acbf 8d32 2bbe 553f 5cbc
00000390: b51f 3d3c ce54 c63c 84e6 5c3c d83c babe
000003a0: cc8b c3bf fd0f bbbf fee3 5fbd c76b 763e
000003b0: cbfc 953d 045d e03c ef42 05bd 7afe 9abe
000003c0: e6c8 b03d 51fd 1ebe 4cfe a1be d055 b9ba
000003d0: ac46 14bd e40f 63bf ce76 dfbe 2448 6b3c
000003e0: adf5 2dbf 5e9c 21bf 9914 b9be d657 71bd
000003f0: 3005 8cbf 1f79 58bf f30e 6abf 08b7 0cbe

sequential/y_pred/BiasAdd/ReadVariableOp f4 [3]
-0.11398045 -0.1562299 0.21406859
00000000: 956e e9bd bbfa 1fbe cc34 5b3e

sequential/y_pred/MatMul f4 [3, 208]
0.2632028 -0.10485889 -0.39460874 0.018638924 0.0049186614 0.034864765 0.27440956 0.047021203
-0.5664841 -0.02594789 -0.5544449 0.12837799 0.32937655 -0.06462587 0.36963382 0.18325576
0.35553697 -0.146372 -0.32085878 0.10988289 0.22248606 -0.06637292 -0.09740488 0.15644455
-0.26736996 -0.32065883 0.10729657 -0.34070593 -0.56592584 0.46448138 0.23952328 -0.07586414
0.20864025 -0.027659431 -0.18987 0.18016617 0.2833872 -0.33387148 -0.34885466 0.16301626
-0.20674482 -0.2486034 -0.09866644 -0.3123395 -0.3599223 0.075491704 0.33239108 0.04911779
0.12513193 -0.24823993 -0.3685108 0.62658954 0.20409004 -0.08632285 -0.3771123 -0.013208557
-0.025076514 0.03829208 -0.055801142 -0.45103893 -0.36306915 0.3234922 -0.012462271 0.01896709
0.23957413 -0.043306727 -0.292609 0.48025784 0.14032437 -0.2039766 -0.38488927 -0.029304052
-0.25987586 -0.21146773 -0.2904554 -0.2547222 -0.40575993 0.0611625 -0.005317089 0.1590398
0.10108746 -0.20867519 0.065539464 0.3759023 0.15988545 0.16984767 -0.24151112 0.011544021
-0.40522754 -0.057448182 -0.2042231 -0.27472678 -0.20807017 0.0038235942 -0.03519192 0.20611963
0.24225421 -0.25057542 -0.14118576 0.20348367 -0.08237974 -0.07028355 -0.34692028 0.11737365
-0.22506852 -0.1838347 -0.25467113 -0.27189022 -0.23753978 0.05691243 -0.10194082 0.11447655
0.08603251 -0.15697229 -0.08578249 0.17965288 0.030829158 0.10968555 -0.2647932 -0.001616805
-0.15341958 -0.22075096 -0.18935564 -0.462286 -0.2516935 0.0029885115 0.17990544 0.06860251
0.37584767 -0.16509044 -0.20912679 0.26577052 0.15185207 -0.29523283 -0.24590246 0.26003683
-0.17390305 -0.27844918 -0.13511805 -0.39823234 -0.32977265 0.24619938 0.20125884 0.07698276
0.24758796 -0.046217255 -0.2711246 0.121654436 0.23211445 -0.2634001 -0.17767617 0.10650091
-0.24864079 -0.2837476 -0.2911526 -0.40194482 -0.47016093 0.03758096 0.31180432 0.23696923
0.12536797 -0.20157132 -0.41499072 0.5595897 0.2895484 -0.2727965 -0.4212418 -0.083302386
-0.25706145 -0.10310558 -0.024329389 -0.5283808 -0.35344398 0.15925756 0.18607111 0.10649971
0.04669529 -0.10112578 -0.27285942 0.5331057 0.27074277 -0.08278897 -0.30199224 -0.020751245
-0.20821832 -0.1176118 -0.48731384 -0.37177306 -0.49502274 0.17955299 0.038954403 0.24624072
0.19774196 -0.12449453 -0.45636693 -0.11551099 0.6692191 0.12039427 0.20080025 0.18520285
-0.43907908 0.072002016 0.12289894 0.12539695 0.39324775 -0.0764133 0.02552245 0.003805183
0.03630888 0.3120339 -0.22378576 -0.16018486 -0.113806486 0.15972324 0.11891092 -0.14922161
-0.14336888 -0.16520464 -0.68318677 0.19130538 0.20033546 0.08243435 0.12484674 0.07408506
0.047911882 0.27601126 -0.39358276 0.15468678 0.12862797 0.10196558 -0.6002938 -0.12830426
-0.1383419 -0.11876832 -0.5123486 -0.5823343 -0.37990725 0.3558608 0.36432168 0.19065946
0.11057699 0.15964441 -0.23483577 -0.17892063 0.06566453 0.0034944988 -0.4973394 0.22867143
-0.1981947 -0.30099234 -0.39182857 -0.40583122 -0.021457007 0.19979362 -0.150289 0.27777794
00000000: 84c2 863e 42c0 d6bd 280a cabe a8b0 983c
00000010: b92c a13b 5bce 0e3d 697f 8c3e 4e99 403d
00000020: 1a05 11bf ab90 d4bc 1af0 0dbf 8575 033e
00000030: 0ba4 a83e 915a 84bd a540 bd3e 66a7 3b3e
00000040: f108 b63e 8be2 15be 9a47 a4be 480a e13d
00000050: 63d3 633e 87ee 87bd 367c c7bd 0033 203e
00000060: b7e4 88be 652d a4be 4ebe db3d 0271 aebe
00000070: 84e0 10bf 81d0 ed3e 9745 753e a95e 9bbd
00000080: caa5 553e 0896 e2bc 486d 42be 7b7d 383e
00000090: 2118 913e 34f1 aabe 149d b2be bced 263e
000000a0: eab4 53be e491 7ebe a111 cabd f7ea 9fbe
000000b0: bc47 b8be 659b 9a3d 2a2f aa3e bc2f 493d
000000c0: 9622 003e 9c32 7ebe 73ad bcbe 2c68 203f
000000d0: fbfc 503e 09ca b0bd dd14 c1be b468 58bc
000000e0: 436d cdbc 28d8 1c3d bd8f 64bd 93ee e6be
000000f0: 33e4 b9be c5a0 a53e 8e2e 4cbc df60 9b3c
00000100: ec52 753e 6562 31bd d9d0 95be 5be4 f53e
00000110: 31b1 0f3e 3edf 50be 3510 c5be 0d0f f0bc
00000120: 730e 85be ff8a 58be 92b6 94be f36a 82be
00000130: c4bf cfbe 8885 7a3d fa3a aebb 54db 223e
00000140: f106 cf3d f3ae 55be 8e39 863d 4476 c03e
00000150: 03b9 233e 8cec 2d3e b14e 77be 2223 3d3c
00000160: fc79 cfbe c94e 6bbd dc1f 51be fda8 8cbe
00000170: 5910 55be 4495 7a3b 6725 10bd 0611 533e
00000180: 7d11 783e 6c4b 80be 0093 10be 065e 503e
00000190: b6b6 a8bd d2f0 8fbd 899f b1be 9961 f03d
000001a0: 5d78 66be 2a3f 3cbe 4164 82be 3235 8bbe
000001b0: a13d 73be 021d 693d 59c6 d0bd ae72 ea3d
000001c0: d031 b03d 58bd 20be bbae afbd edf6 373e
000001d0: 6e8d fc3c d1a2 e03d f992 87be f9ea d3ba
000001e0: 061a 1dbe 8a0c 62be 72e6 41be c0b0 ecbe
000001f0: f8dd 80be e7da 433b 2239 383e 797f 8c3d
00000200: 1b6f c03e 780d 29be 5525 56be 1313 883e
00000210: 1c7f 1b3e c228 97be dbcd 7bbe 8c23 853e
00000220: a413 32be e490 8ebe 635c 0abe 1ce5 cbbe
00000230: f6d7 a8be b11b 7c3e cc16 4e3e 23a9 9d3d
00000240: b387 7d3e 4e4e 3dbd d8d0 8abe f625 f93d
00000250: 69af 6d3e 61dc 86be bef0 35be 261d da3d
00000260: b19b 7ebe 5e47 91be f411 95be b6cb cdbe
00000270: efb8 f0be 7eee 193d d1a4 9f3e 10a8 723e
00000280: 7660 003e b668 4ebe aa79 d4be 4541 0f3f
00000290: b03f 943e fcab 8bbe 01ad d7be 719a aabd
000002a0: 8f9d 83be 0529 d3bd 6d4e c7bc f743 07bf
000002b0: 9cf6 b4be 6a14 233e 6d89 3e3e 851c da3d
000002c0: 8f43 3f3d 081b cfbd 3bb4 8bbe 9d79 083f
000002d0: cc9e 8a3e 438d a9bd ba9e 9abe 84fe a9bc
000002e0: 2f37 55be 75de f0bd 3381 f9be 0a59 bebe
000002f0: 9f73 fdbe bddc 373e a78e 1f3d 8726 7c3e
00000300: de7c 4a3e fdf6 febd eda8 e9be 0791 ecbd
00000310: f151 2b3f 4591 f63d 959e 4d3e d1a5 3d3e
00000320: f9ce e0be cb75 933d 71b2 fb3d 0f68 003e
00000330: c557 c93e 947e 9cbd 7514 d13c 6160 793b
00000340: 9fb8 143d e8c2 9f3e 1828 65be 8007 24be
00000350: 6013 e9bd 7d8e 233e 9287 f33d 8dcd 18be
00000360: 4bcf 12be 682b 29be 54e5 2ebf 8fe5 433e
00000370: bd24 4d3e 57d3 a83d a6af ff3d e8b9 973d
00000380: 403f 443d 5951 8d3e ae83 c9be 3666 1e3e
00000390: 0db7 033e 54d3 d03d dbac 19bf 3162 03be
000003a0: 80a9 0dbe ce3c f3bd 4729 03bf dc13 15bf
000003b0: 3483 c2be 6333 b63e 5f88 ba3e 3c3c 433e
000003c0: 3076 e23d d379 233e ca78 70be f836 37be
000003d0: 207b 863d f603 653b 45a3 febe d828 6a3e
000003e0: 8df3 4abe ab1b 9abe c19d c8be 1cc9 cfbe
000003f0: 9bc6 afbc b396 4c3e 5ce5 19be e938 8e3e
